nohup: ignoring input
程序开始运行 !
'parser 的输入参数: '
{'batch_size': 32,
 'epochs': 25,
 'lr': 0.0001,
 'model': 'CNN',
 'random': 100,
 'resume': '',
 'workers': 8}


=> creating model:  CNN


CNN(
  (conv1): Sequential(
    (0): Conv2d(3, 16, kernel_size=(5, 5), stride=(1, 1), padding=(2, 2))
    (1): BatchNorm2d(16, eps=1e-05, momentum=0.1, affine=True, track_running_stats=True)
    (2): ReLU()
    (3): MaxPool2d(kernel_size=2, stride=2, padding=0, dilation=1, ceil_mode=False)
  )
  (conv2): Sequential(
    (0): Conv2d(16, 32, kernel_size=(5, 5), stride=(1, 1), padding=(2, 2))
    (1): BatchNorm2d(32, eps=1e-05, momentum=0.1, affine=True, track_running_stats=True)
    (2): ReLU()
    (3): MaxPool2d(kernel_size=2, stride=2, padding=0, dilation=1, ceil_mode=False)
  )
  (conv3): Sequential(
    (0): Conv2d(32, 64, kernel_size=(3, 3), stride=(1, 1), padding=(1, 1))
    (1): BatchNorm2d(64, eps=1e-05, momentum=0.1, affine=True, track_running_stats=True)
    (2): ReLU()
    (3): MaxPool2d(kernel_size=2, stride=2, padding=0, dilation=1, ceil_mode=False)
  )
  (conv4): Sequential(
    (0): Conv2d(64, 128, kernel_size=(3, 3), stride=(1, 1), padding=(1, 1))
    (1): BatchNorm2d(128, eps=1e-05, momentum=0.1, affine=True, track_running_stats=True)
    (2): ReLU()
    (3): MaxPool2d(kernel_size=2, stride=2, padding=0, dilation=1, ceil_mode=False)
  )
  (conv5): Sequential(
    (0): Conv2d(128, 256, kernel_size=(3, 3), stride=(1, 1), padding=(1, 1))
    (1): BatchNorm2d(256, eps=1e-05, momentum=0.1, affine=True, track_running_stats=True)
    (2): ReLU()
    (3): MaxPool2d(kernel_size=2, stride=2, padding=0, dilation=1, ceil_mode=False)
  )
  (f1): Linear(in_features=16384, out_features=2048, bias=True)
  (f2): Linear(in_features=2048, out_features=1024, bias=True)
  (out): Linear(in_features=1024, out_features=2, bias=True)
)


=> 从头开始训练


learning rate -> 0.0001
Epoch 0 的训练集准确率为:  0.595
Epoch 0 的训练集损失值为:  0.6700357482546851
Epoch 0 的测试集准确率为:  0.658


learning rate -> 0.0001
Epoch 1 的训练集准确率为:  0.727
Epoch 1 的训练集损失值为:  0.5442614110689314
Epoch 1 的测试集准确率为:  0.706


learning rate -> 0.0001
Epoch 2 的训练集准确率为:  0.776
Epoch 2 的训练集损失值为:  0.4861845241652595
Epoch 2 的测试集准确率为:  0.742
…
